144_S_50_l_3_vine_D_learning_AdaGrad_eta_0.07_decay_1.0/param_nobs_144_S_50_l_3_vine_D_step_20.npy (npy, 2816 bytes, 1 tensors)

array (column-major) f8 [21, 16]
000000 3d 4d de ef 74 18 e0 3f 10 9b 40 00 cd 51 e0 3f
       0.5029854474000001 0.5099854474000001
000010 59 14 75 ff e5 1e e0 3f 59 14 75 ff e5 1e e0 3f
       0.5037717809106069 0.5037717809106069
000020 59 14 75 ff e5 1e e0 3f 59 14 75 ff e5 1e e0 3f
       0.5037717809106069 0.5037717809106069
000030 8b 2c a5 85 b0 2d e0 3f 22 84 ee dc b7 0b e0 3f
       0.5055773363359476 0.5014304461548174
000040 d9 2a 45 42 f0 f3 df 3f 93 d0 7c 20 89 05 e0 3f
       0.49926382514665374 0.5006757387659654
000050 93 d0 7c 20 89 05 e0 3f 93 d0 7c 20 89 05 e0 3f
       0.5006757387659654 0.5006757387659654
000060 7f dd 18 33 d5 41 e0 3f 18 40 4a 9a 42 18 e0 3f
       0.5080362318030182 0.5029614461400369
000070 c1 e4 4c 48 ed 21 dd 3f 88 cb f3 1e 2e 4b de 3f
       0.4551957326944596 0.4733386327999871
000080 55 4f d5 bf f8 1f de 3f ba 80 bc eb 39 a9 dd 3f
       0.4707013963099958 0.46345375081183315
000090 ba 80 bc eb 39 a9 dd 3f e0 7e f5 01 83 1e e0 3f
       0.46345375081183315 0.5037245786915854
0000a0 6e f9 83 94 f4 d0 de 3f d5 39 ee eb 33 14 e0 3f
       0.48150362494916166 0.5024661644
0000b0 a8 87 50 fc 8b 4d e0 3f 5b 08 4d 40 ae 77 e0 3f
       0.5094661644 0.5146094566228031
0000c0 5b 08 4d 40 ae 77 e0 3f 5b 08 4d 40 ae 77 e0 3f
       0.5146094566228031 0.5146094566228031
0000d0 5b 08 4d 40 ae 77 e0 3f 10 5c dd fd 6a 52 e0 3f
       0.5146094566228031 0.5100607832235955
0000e0 19 c8 b2 c7 58 6c e0 3f 63 f1 06 45 85 66 e0 3f
       0.5132259273871141 0.5125147197900727
0000f0 84 8b d5 10 84 55 e0 3f 84 8b d5 10 84 55 e0 3f
       0.5104389504234494 0.5104389504234494
000100 84 8b d5 10 84 55 e0 3f 6b c7 0f 22 77 a5 e0 3f
       0.5104389504234494 0.5201984086290684
000110 1c e9 94 7c bf 86 e0 3f d4 d1 55 17 95 34 e2 3f
       0.5164487298236824 0.5689187484518308
000120 1a 70 03 9f 5e 8c e1 3f 3d a6 da d4 0d 39 e2 3f
       0.5483849626284638 0.5694646031672118
000130 40 bb a1 d0 a6 f7 e1 3f 40 bb a1 d0 a6 f7 e1 3f
       0.5614809107627039 0.5614809107627039
000140 fd 13 6e a5 e7 34 e2 3f db 8b 40 0e d2 b8 e1 3f
       0.568958113770918 0.553811099849891
000150 b0 c5 fa 93 42 23 02 c0 29 56 13 98 98 31 02 c0
       -2.2672168312935455 -2.2742168312932063
000160 2e a5 21 a4 ff 23 02 c0 2e a5 21 a4 ff 23 02 c0
       -2.2675774405257902 -2.2675774405257902
000170 2e a5 21 a4 ff 23 02 c0 2e a5 21 a4 ff 23 02 c0
       -2.2675774405257902 -2.2675774405257902
000180 6a 89 41 af 42 16 02 c0 ce 82 8f 15 5f 0f 02 c0
       -2.2608693782687412 -2.2575055775090282
000190 71 56 88 d5 1d 0b 02 c0 90 06 0a 28 fe 04 02 c0
       -2.255427997801967 -2.2524378898677426
0001a0 90 06 0a 28 fe 04 02 c0 90 06 0a 28 fe 04 02 c0
       -2.2524378898677426 -2.2524378898677426
0001b0 34 03 d8 64 c0 ac 01 c0 8d 45 af 81 09 c8 01 c0
       -2.2093513372823512 -2.2226743823636697
0001c0 d9 17 ce e4 09 e7 01 c0 f5 87 39 ed 5a 68 02 c0
       -2.2378118396181716 -2.3009546788389295
0001d0 c7 4a d6 78 65 4e 02 c0 f3 94 84 f6 fb 5c 02 c0
       -2.2882794800183066 -2.295402456208302
0001e0 f3 94 84 f6 fb 5c 02 c0 91 ba df 47 e4 18 02 c0
       -2.295402456208302 -2.262154160990868
0001f0 20 d1 01 06 12 fe 01 c0 b6 6b 94 4a 31 ad 01 c0
       -2.249057814531753 -2.209566671995584
000200 66 d8 7b 46 db 9e 01 c0 20 7c 63 c3 13 91 01 c0
       -2.2025666719956005 -2.1958384766326304
000210 20 7c 63 c3 13 91 01 c0 20 7c 63 c3 13 91 01 c0
       -2.1958384766326304 -2.1958384766326304
000220 20 7c 63 c3 13 91 01 c0 d5 68 4a 61 ad 8e 01 c0
       -2.1958384766326304 -2.194666633685396
000230 4c c4 6e 31 4b 85 01 c0 1d 95 3c e7 b2 8a 01 c0
       -2.190084825699648 -2.1927240434039406
000240 09 18 c7 c2 40 8f 01 c0 09 18 c7 c2 40 8f 01 c0
       -2.1949477402695305 -2.1949477402695305
000250 09 18 c7 c2 40 8f 01 c0 bc a8 f8 8a fc 45 01 c0
       -2.1949477402695305 -2.159173093522524
000260 a7 80 40 b9 d9 32 01 c0 a5 c6 57 aa e5 ff 00 c0
       -2.149829337388002 -2.124949770740232
000270 7b c6 1f 6d 5b 2d 01 c0 98 43 fe 88 d4 1b 01 c0
       -2.1471470380136544 -2.138588972339175
000280 6e c5 35 09 f3 fb 00 c0 6e c5 35 09 f3 fb 00 c0
       -2.123022148087947 -2.123022148087947
000290 9a 20 12 ab fc 26 01 c0 4f d0 14 e5 c7 60 01 c0
       -2.144036613932326 -2.172256269166645
0002a0 d4 1d e4 a7 8c 65 11 c0 1a d4 d7 a5 61 5e 11 c0
       -4.349169371889236 -4.342169371889236
0002b0 9e 16 ea d0 9d 57 11 c0 9e 16 ea d0 9d 57 11 c0
       -4.335562958037967 -4.335562958037967
0002c0 9e 16 ea d0 9d 57 11 c0 9e 16 ea d0 9d 57 11 c0
       -4.335562958037967 -4.335562958037967
0002d0 27 47 63 0c 55 5a 11 c0 72 8f 39 d4 2a 59 11 c0
       -4.338215058860249 -4.337077442181782
0002e0 4d d7 53 6d b5 5a 11 c0 53 46 9f 99 08 5c 11 c0
       -4.338582714311838 -4.339876556726796
0002f0 53 46 9f 99 08 5c 11 c0 53 46 9f 99 08 5c 11 c0
       -4.339876556726796 -4.339876556726796
000300 9d 21 e8 2d 6c 81 11 c0 3f c8 53 d0 c4 48 11 c0
       -4.376389233868761 -4.321063284982357
000310 e8 b0 08 99 e2 55 11 c0 fc ae dd 28 71 4e 11 c0
       -4.333872214465579 -4.326603544741143
000320 c4 34 e9 94 c6 42 11 c0 cd fd b7 b8 c4 31 11 c0
       -4.315210654004833 -4.298601995687432
000330 cd fd b7 b8 c4 31 11 c0 25 00 2c 79 53 2d 11 c0
       -4.298601995687432 -4.294263737974721
000340 33 3e 3b 65 af 2d 11 c0 c9 aa 9a 70 21 a6 11 c0
       -4.294614392987159 -4.412236937942631
000350 43 61 8e 6e f6 9e 11 c0 38 e2 d2 8a d2 97 11 c0
       -4.405236937942678 -4.398264092561071
000360 38 e2 d2 8a d2 97 11 c0 38 e2 d2 8a d2 97 11 c0
       -4.398264092561071 -4.398264092561071
000370 38 e2 d2 8a d2 97 11 c0 7d 90 6e 64 d9 9c 11 c0
       -4.398264092561071 -4.4031730358584555
000380 66 19 fd bc 1a 97 11 c0 06 ff 45 05 54 98 11 c0
       -4.397562935779524 -4.398758013150433
000390 a8 56 53 4a 13 96 11 c0 a8 56 53 4a 13 96 11 c0
       -4.396557961784914 -4.396557961784914
0003a0 a8 56 53 4a 13 96 11 c0 e3 d7 d0 6a b9 a2 11 c0
       -4.396557961784914 -4.408910435673508
0003b0 54 fb 5d 7a 62 a6 11 c0 7d 46 f0 eb 41 ab 11 c0
       -4.412485038744155 -4.417243658581012
0003c0 7a af 2b 05 65 b8 11 c0 6e f3 a9 9d 54 af 11 c0
       -4.430072861472462 -4.421221221445064
0003d0 32 01 e0 ce 20 c9 11 c0 32 01 e0 ce 20 c9 11 c0
       -4.446414215490494 -4.446414215490494
0003e0 f0 d5 3b b4 49 e5 11 c0 83 0f 73 b9 97 ff 11 c0
       -4.473913971092301 -4.499602220199338
0003f0 a5 75 f4 72 90 31 f4 bf bc 4e c3 6a e4 14 f4 bf
       -1.2621006479670112 -1.2551006479670113
000400 2a 79 16 51 f0 14 f4 bf 85 c2 cb 81 50 12 f4 bf
       -1.2551119964114812 -1.254471308722857
000410 fa ce 30 65 50 12 f4 bf e4 02 8f 29 ff 1c f4 bf
       -1.2544712021598898 -1.257079279268674
000420 fb 39 8d 05 dc 1c f4 bf 09 93 55 9c a7 00 f4 bf
       -1.2570457665311767 -1.2501598460013972
000430 9b 31 f7 09 e1 fc f3 bf 84 cf 14 e5 88 fa f3 bf
       -1.249238051345947 -1.2486657093513438
000440 af 10 f2 2b 71 fa f3 bf 48 cc cc 21 d1 f8 f3 bf
       -1.2486430851577486 -1.2482463188469115
000450 57 bf 6c 00 41 59 f4 bf 06 a1 8e 81 aa a3 f4 bf
       -1.2717905060380497 -1.2899575291467626
000460 d2 fd 23 a0 d6 75 f4 bf 4a 06 b3 3c 72 95 f4 bf
       -1.2787691359989037 -1.2864858981196385
000470 ec e1 a5 87 a8 93 f4 bf ad ab 2b 0a f3 14 f5 bf
       -1.2860493944882547 -1.3176145932472807
000480 0d e3 55 80 8c 6e f4 bf ec b6 cf 89 e2 64 f4 bf
       -1.2769894612412742 -1.274630106282923
000490 86 a0 eb b4 50 f6 f3 bf 79 01 0d 49 d8 4b f4 bf
       -1.247635561676391 -1.2685168126627941
0004a0 5b 28 3e 51 84 68 f4 bf c7 6a 0e cb 81 68 f4 bf
       -1.2755168126627925 -1.2755144054305434
0004b0 40 05 62 d9 06 7f f4 bf e3 97 39 c1 06 7f f4 bf
       -1.2810123912352793 -1.281012301240019
0004c0 c1 b9 0a 7c 05 90 f4 bf a7 80 20 59 f6 8f f4 bf
       -1.285161480463657 -1.2851470452806468
0004d0 24 93 27 7e a8 a9 f4 bf d9 53 22 c8 df b2 f4 bf
       -1.2914204528726225 -1.2936704461801496
0004e0 d2 9e 9f 90 94 b0 f4 bf 76 48 93 95 66 b0 f4 bf
       -1.2931104325634135 -1.2930665819917784
0004f0 85 46 90 fc 6b ad f4 bf 6e cb 5d dc 30 8f f4 bf
       -1.292339312149495 -1.284958706670945
000500 fe be af b6 73 ac f4 bf e7 35 19 7f 1c 92 f4 bf
       -1.2921025406066629 -1.2856717076095892
000510 bc 6a dd f5 be 7e f4 bf 2a 1f a9 15 b0 6b f4 bf
       -1.2809438327882807 -1.276290974246829
000520 59 1e 18 8d 05 65 f4 bf fb 5d 17 7e e2 57 f4 bf
       -1.2746634971134851 -1.2714562344971216
000530 ff 2b e2 e0 b4 54 f4 bf 9d 35 59 f7 55 37 f4 bf
       -1.2706803116332137 -1.2635097181367663
000540 3b 81 56 e0 8e dd 0d c0 b0 14 6f e4 e4 eb 0d c0
       -3.7331826712035343 -3.7401826712035344
000550 d0 8d ee 5e 48 f9 0d c0 a7 da bc 2e 2c f8 0d c0
       -3.7467200676489725 -3.7461780215629292
000560 1d eb fc 65 a2 ff 0d c0 ee 05 10 be 1c 07 0e c0
       -3.7498214690980505 -3.7534727905883676
000570 d3 6d de a2 51 fe 0d c0 6d d9 24 c2 9e 00 0e c0
       -3.7491791462068504 -3.7503028075690765
000580 77 a4 26 ca 92 02 0e c0 a3 3e 9c fe 88 ff 0d c0
       -3.7512565415423142 -3.7497730151588526
000590 33 a6 06 b4 b0 02 0e c0 f6 07 ef 85 de 8c 0e c0
       -3.7513135971574 -3.8187838042804243
0005a0 8d 92 b2 ea 56 98 0e c0 ce ec 5b 2c 4c 99 0e c0
       -3.8243845306154243 -3.82485232024701
0005b0 e5 f9 44 a7 96 78 0e c0 1d 4e 5a 01 51 9a 0e c0
       -3.8088810985493518 -3.8253498178180636
0005c0 bf c4 20 82 a9 1a 0f c0 69 ae ea a7 98 22 0f c0
       -3.888018623948113 -3.8918927305692717
0005d0 3b 67 e3 c9 70 5f 0f c0 7c 65 33 81 a4 93 0f c0
       -3.9216018459818804 -3.947091111546511
0005e0 db f9 b3 44 22 73 0f c0 2f c0 92 ea 95 ea 0d c0
       -3.931217705480987 -3.7395437551531567
0005f0 8c 1c ab ee eb f8 0d c0 70 da 0f f0 41 07 0e c0
       -3.7465437551468934 -3.753543735011867
000600 36 70 f1 42 cc 0a 0e c0 8c c3 e9 85 98 0a 0e c0
       -3.755272410386193 -3.7551737272228305
000610 76 1d 2e 64 8a 0b 0e c0 e7 f0 de af 89 09 0e c0
       -3.7556350542615133 -3.7546571483527376
000620 56 69 bd be 89 0b 0e c0 47 ff b9 19 3f 0d 0e c0
       -3.755633821635608 -3.7564680108916124
000630 94 dd f0 94 a3 0c 0e c0 c6 e3 f3 d3 6d 0d 0e c0
       -3.7561713825231866 -3.756557136421608
000640 72 ac e2 36 ad 6f 0e c0 b3 e9 0c 4d 28 88 0e c0
       -3.8045295989918992 -3.816483118015833
000650 6f 2e 9a ef 1a 74 0e c0 8f fc cb ba 51 75 0e c0
       -3.8066920012404846 -3.807284793234039
000660 2d 9b 03 49 1a 8a 0e c0 ce 69 63 41 55 94 0e c0
       -3.8174329475617896 -3.8224282368148357
000670 dd 8b b3 49 07 9a 0e c0 09 36 46 44 dc cb 0e c0
       -3.8252092130582995 -3.8495412191321106
000680 49 26 48 03 98 0b 0f c0 a9 1c fd 99 00 10 0f c0
       -3.8806610351937576 -3.8828136473053587
000690 08 1a bb ce 07 80 f3 bf f1 40 ec d6 b3 9c f3 bf
       -1.2187574458527042 -1.225757445852704
0006a0 31 79 31 d7 b5 9c f3 bf 31 79 31 d7 b5 9c f3 bf
       -1.2257593542086165 -1.2257593542086165
0006b0 31 79 31 d7 b5 9c f3 bf 31 79 31 d7 b5 9c f3 bf
       -1.2257593542086165 -1.2257593542086165
0006c0 8b d4 f4 5d a7 9c f3 bf fb b9 d6 41 a1 86 f3 bf
       -1.2257455511255866 -1.2203686305834924
0006d0 0a ac c2 b1 a0 85 f3 bf 5f c9 1c 95 ab 82 f3 bf
       -1.2201239532248587 -1.2194019150452602
0006e0 5f c9 1c 95 ab 82 f3 bf 5f c9 1c 95 ab 82 f3 bf
       -1.2194019150452602 -1.2194019150452602
0006f0 56 9a f8 ca d1 2e f3 bf 8f f4 eb bc fc 02 f3 bf
       -1.1989305428084172 -1.1882293109659121
000700 1b 3e 24 5b be fc f2 bf c3 d8 2e d0 41 25 f3 bf
       -1.1867049751489336 -1.196595967497658
000710 47 52 70 a2 ab 1f f3 bf 57 77 47 c0 b4 aa f2 bf
       -1.1952320428146253 -1.16667628392266
000720 57 77 47 c0 b4 aa f2 bf 22 1f bd 72 e7 ab f2 bf
       -1.16667628392266 -1.1669687730772655
000730 1b 4d 56 ac 3f 85 f2 bf 2d 02 a0 53 b8 a9 f3 bf
       -1.1575314266127126 -1.2289355532267436
000740 b3 db 6e 4b 0c 8d f3 bf 13 88 46 83 0d 8d f3 bf
       -1.2219355532267684 -1.2219367149305114
000750 13 88 46 83 0d 8d f3 bf 13 88 46 83 0d 8d f3 bf
       -1.2219367149305114 -1.2219367149305114
000760 13 88 46 83 0d 8d f3 bf ba ad e8 91 a2 8d f3 bf
       -1.2219367149305114 -1.2220788669172706
000770 b6 e0 7e c7 40 aa f3 bf c9 45 cb 62 ee a9 f3 bf
       -1.229065684585334 -1.2289871081487596
000780 c6 1f be 69 d3 ae f3 bf c6 1f be 69 d3 ae f3 bf
       -1.230182087952913 -1.230182087952913
000790 c6 1f be 69 d3 ae f3 bf ce a8 8e 9a 3f 20 f4 bf
       -1.230182087952913 -1.257873157252607
0007a0 5a e6 f9 4a e0 50 f4 bf 39 d8 da 1c 72 44 f4 bf
       -1.269745152354878 -1.266710388864807
0007b0 4d 0e 67 24 f7 27 f4 bf 9a 7d fd 8e d6 11 f4 bf
       -1.2597571775412633 -1.2543550096087075
0007c0 0c 77 9d 5b 30 7f f4 bf 0c 77 9d 5b 30 7f f4 bf
       -1.2810519770350224 -1.2810519770350224
0007d0 ce 62 0b 40 b2 7b f4 bf 1f 66 92 47 c1 78 f4 bf
       -1.2801992894875869 -1.2794812007690621
0007e0 4f eb a7 7c ed 6a 0d c0 c4 7e c0 80 43 79 0d c0
       -3.6772107828850618 -3.684210782885062
0007f0 1b 65 e0 35 cb 81 0d c0 1b 65 e0 35 cb 81 0d c0
       -3.688375874433985 -3.688375874433985
