nv144_S_50_l_3_vine_D_learning_AdaGrad_eta_0.07_decay_1.0/param_nobs_144_S_50_l_3_vine_D_step_20.npy (npy, 2816 bytes, 1 tensors)

array (column-major) f8 [21, 16]
000000 3d 4d de ef 74 18 e0 3f 78 57 b5 93 e5 55 e2 3f
       0.5029854474000001 0.5729854473999998
000010 b1 63 39 9f fa b3 e0 3f 12 70 6b 85 43 b5 df 3f
       0.5219700918051925 0.4954384615828086
000020 12 70 6b 85 43 b5 df 3f 92 00 17 95 fd c3 e1 3f
       0.4954384615828086 0.5551746284400159
000030 b2 68 50 ea 0f de e1 3f b2 68 50 ea 0f de e1 3f
       0.5583571983763902 0.5583571983763902
000040 c2 16 8f c2 78 47 e2 3f 6b cd 01 08 2a d1 e2 3f
       0.5712245750407521 0.58803273738742
000050 6b cd 01 08 2a d1 e2 3f 6b cd 01 08 2a d1 e2 3f
       0.58803273738742 0.58803273738742
000060 80 04 a1 d5 43 1a e4 3f 80 04 a1 d5 43 1a e4 3f
       0.6282061741295735 0.6282061741295735
000070 80 04 a1 d5 43 1a e4 3f 50 c7 75 a8 b7 2b e3 3f
       0.6282061741295735 0.5990865984187881
000080 50 c7 75 a8 b7 2b e3 3f 45 94 c7 2a 09 0f e2 3f
       0.5990865984187881 0.5643354259051497
000090 45 94 c7 2a 09 0f e2 3f 29 04 c9 2b b3 9e e2 3f
       0.5643354259051497 0.5818725447826455
0000a0 29 04 c9 2b b3 9e e2 3f d5 39 ee eb 33 14 e0 3f
       0.5818725447826455 0.5024661644
0000b0 0b 44 c5 8f a4 51 e2 3f 6e e6 bc 8f 9a a5 e2 3f
       0.5724661643999992 0.5827153022175489
0000c0 4f 2b e0 83 48 80 e0 3f 4f 2b e0 83 48 80 e0 3f
       0.5156595779129506 0.5156595779129506
0000d0 94 ab ac 9c 5f 2d df 3f 00 ba 92 6d 74 71 dd 3f
       0.4871443777107569 0.46004973125937454
0000e0 00 ba 92 6d 74 71 dd 3f f8 ac 7c 9e 98 01 dd 3f
       0.46004973125937454 0.45322242238280763
0000f0 71 a7 b2 42 20 b5 dd 3f 71 a7 b2 42 20 b5 dd 3f
       0.4641800547930109 0.4641800547930109
000100 71 a7 b2 42 20 b5 dd 3f 5c 4c 7a 5a d3 be dd 3f
       0.4641800547930109 0.4647720702716407
000110 5c 4c 7a 5a d3 be dd 3f 5c 4c 7a 5a d3 be dd 3f
       0.4647720702716407 0.4647720702716407
000120 3a 96 0b d2 64 6e dc 3f 3a 96 0b d2 64 6e dc 3f
       0.44423790466530344 0.44423790466530344
000130 7e 36 76 63 37 6f db 3f 7e 36 76 63 37 6f db 3f
       0.42866310799659135 0.42866310799659135
000140 49 f0 2d 6d e1 54 da 3f 49 f0 2d 6d e1 54 da 3f
       0.4114306989865822 0.4114306989865822
000150 b0 c5 fa 93 42 23 02 c0 ba 84 f0 bc 9e b2 02 c0
       -2.2672168312935455 -2.337216831293145
000160 47 c7 97 79 c8 58 02 c0 f0 d6 e2 f3 e8 d4 01 c0
       -2.2933511256641483 -2.228959946975799
000170 f0 d6 e2 f3 e8 d4 01 c0 28 fb 21 3c 83 88 01 c0
       -2.228959946975799 -2.191656560694714
000180 49 a4 d2 67 42 91 01 c0 49 a4 d2 67 42 91 01 c0
       -2.1959274398000486 -2.1959274398000486
000190 ec 88 7f ba cb 1b 01 c0 01 a7 6c ad f5 e0 00 c0
       -2.1385721750422046 -2.109843592527682
0001a0 01 a7 6c ad f5 e0 00 c0 01 a7 6c ad f5 e0 00 c0
       -2.109843592527682 -2.109843592527682
0001b0 c8 ff 9a da 77 3b 01 c0 c8 ff 9a da 77 3b 01 c0
       -2.1540371969749437 -2.1540371969749437
0001c0 c8 ff 9a da 77 3b 01 c0 75 5c 1f 54 f1 b8 00 c0
       -2.1540371969749437 -2.090304047782008
0001d0 75 5c 1f 54 f1 b8 00 c0 04 40 e6 ac 90 eb 00 c0
       -2.090304047782008 -2.1150220401541464
0001e0 04 40 e6 ac 90 eb 00 c0 0a 01 5b 90 e8 c2 00 c0
       -2.1150220401541464 -2.095170142914985
0001f0 0a 01 5b 90 e8 c2 00 c0 b6 6b 94 4a 31 ad 01 c0
       -2.095170142914985 -2.209566671995584
000200 94 aa 9e 21 d5 1d 01 c0 1a 2d d9 08 4a d4 00 c0
       -2.1395666719957465 -2.1036568347241316
000210 d8 0c 0c 3b c4 40 01 c0 d8 0c 0c 3b c4 40 01 c0
       -2.1566242802669926 -2.1566242802669926
000220 d5 36 ed 7f b2 cf 01 c0 c8 2e 40 a6 ff bb 01 c0
       -2.226414679934218 -2.21679620631571
000230 c8 2e 40 a6 ff bb 01 c0 ec cb 88 ca e2 c4 01 c0
       -2.21679620631571 -2.2211356947896004
000240 3a 91 3f 28 6f d0 01 c0 3a 91 3f 28 6f d0 01 c0
       -2.2267745155715177 -2.2267745155715177
000250 3a 91 3f 28 6f d0 01 c0 85 97 3c e2 30 c7 01 c0
       -2.2267745155715177 -2.2222612070790455
000260 85 97 3c e2 30 c7 01 c0 85 97 3c e2 30 c7 01 c0
       -2.2222612070790455 -2.2222612070790455
000270 92 5c 75 f5 5b 7d 01 c0 92 5c 75 f5 5b 7d 01 c0
       -2.1862105537835044 -2.1862105537835044
000280 77 1e 69 f6 ec 9c 01 c0 77 1e 69 f6 ec 9c 01 c0
       -2.2016238451795362 -2.2016238451795362
000290 9b 2e e3 48 f7 aa 01 c0 9b 2e e3 48 f7 aa 01 c0
       -2.2084794706659756 -2.2084794706659756
0002a0 d4 1d e4 a7 8c 65 11 c0 f2 fe 5e bc 3a ad 11 c0
       -4.349169371889236 -4.419169371889199
0002b0 11 77 dd de e1 f4 11 c0 b0 39 5b 07 55 3c 12 c0
       -4.489142877833516 -4.55891810888572
0002c0 b0 39 5b 07 55 3c 12 c0 81 c8 3b ee e9 80 12 c0
       -4.55891810888572 -4.625892374419096
0002d0 19 2e f0 43 e4 83 12 c0 19 2e f0 43 e4 83 12 c0
       -4.6288004508346825 -4.6288004508346825
0002e0 95 25 2b 4f 3f 89 12 c0 5f 21 46 67 c0 ab 12 c0
       -4.634030568130943 -4.667726148276727
0002f0 5f 21 46 67 c0 ab 12 c0 5f 21 46 67 c0 ab 12 c0
       -4.667726148276727 -4.667726148276727
000300 ea 98 df 46 ce cf 12 c0 ea 98 df 46 ce cf 12 c0
       -4.702935321233079 -4.702935321233079
000310 ea 98 df 46 ce cf 12 c0 50 54 58 b1 36 04 13 c0
       -4.702935321233079 -4.75411488629932
000320 50 54 58 b1 36 04 13 c0 5e d6 39 9e a6 0a 13 c0
       -4.75411488629932 -4.7604012224961405
000330 5e d6 39 9e a6 0a 13 c0 92 f5 98 34 06 05 13 c0
       -4.7604012224961405 -4.7549064844473765
000340 92 f5 98 34 06 05 13 c0 c9 aa 9a 70 21 a6 11 c0
       -4.7549064844473765 -4.412236937942631
000350 09 cb 1f 5c 73 5e 11 c0 7f e5 8c 9c f9 38 11 c0
       -4.342236937942979 -4.305639692401541
000360 be 97 47 60 04 f2 10 c0 be 97 47 60 04 f2 10 c0
       -4.236344818467783 -4.236344818467783
000370 42 0d 6a 93 ab ba 10 c0 9e 75 b5 34 bc c0 10 c0
       -4.182295134876144 -4.188217948508649
000380 9e 75 b5 34 bc c0 10 c0 73 bd b0 c5 36 c3 10 c0
       -4.188217948508649 -4.190638626968723
000390 56 dc 8f 1c a8 e9 10 c0 56 dc 8f 1c a8 e9 10 c0
       -4.2281803572469325 -4.2281803572469325
0003a0 56 dc 8f 1c a8 e9 10 c0 f6 e9 81 39 b1 da 10 c0
       -4.2281803572469325 -4.2135666833441885
0003b0 f6 e9 81 39 b1 da 10 c0 f6 e9 81 39 b1 da 10 c0
       -4.2135666833441885 -4.2135666833441885
0003c0 ab da 9e a1 89 e4 10 c0 ab da 9e a1 89 e4 10 c0
       -4.223181271858873 -4.223181271858873
0003d0 38 7c ed f7 97 0b 11 c0 38 7c ed f7 97 0b 11 c0
       -4.261321901197384 -4.261321901197384
0003e0 bd b5 e7 a8 64 da 10 c0 bd b5 e7 a8 64 da 10 c0
       -4.213274611608935 -4.213274611608935
0003f0 a5 75 f4 72 90 31 f4 bf 87 f0 08 21 d8 12 f3 bf
       -1.2621006479670112 -1.1921006479670113
000400 d6 38 a2 01 fa 52 f3 bf 9e 7b 60 13 f0 52 f3 bf
       -1.2077579559150329 -1.2077484852704639
000410 2d 38 0d 68 22 3a f3 bf ea e5 ed ec bc cd f3 bf
       -1.201692968799317 -1.2377290015268678
000420 fb 4b 78 e8 e1 0f f3 bf a3 5b be 10 fc 01 f3 bf
       -1.1913775521140895 -1.187984528927452
000430 02 0b 7c 5c 85 8a f2 bf 5c b5 4f 22 30 ba f2 bf
       -1.1588185894658527 -1.170456060436968
000440 2a 23 14 f2 d9 c5 f2 bf c9 fc 49 91 cd b8 f2 bf
       -1.1733035522649495 -1.1701179194786155
000450 73 36 22 b4 95 a3 f2 bf d9 9a 1c be 4e 9f f2 bf
       -1.1649376903982585 -1.163893454193092
000460 a6 bf 63 be cb a8 f3 bf ce 4f ac 84 b2 eb f3 bf
       -1.2287099301429207 -1.2450432951491055
000470 9a e1 65 f5 25 c2 f3 bf 86 37 42 20 eb 82 f3 bf
       -1.2348994813783976 -1.2194625148872276
000480 ff 7c 90 b2 bd 43 f3 bf 77 e1 f4 99 8d e7 f2 bf
       -1.204038331525055 -1.1815315259865125
000490 ad fe 76 70 61 de f2 bf 79 01 0d 49 d8 4b f4 bf
       -1.1792921441228075 -1.2685168126627941
0004a0 4d 86 f8 9a 90 6a f5 bf 7c 0f b4 86 a8 54 f4 bf
       -1.3385168126627776 -1.2706685315942812
0004b0 af 0a 3e 55 30 54 f4 bf 88 f4 9a 37 d6 52 f4 bf
       -1.270553906419689 -1.2702238246995723
0004c0 f7 61 b4 cf 39 06 f4 bf 6a e0 6c 6a fa 24 f4 bf
       -1.2515199769460403 -1.2590278775442365
0004d0 cc 72 2e 61 de 28 f4 bf 2c 4d 1b ba b0 8d f4 bf
       -1.2599777027273147 -1.2845923681059714
0004e0 b0 62 d0 8a bc 74 f4 bf 00 5b a1 99 fe 86 f4 bf
       -1.2785001203939537 -1.282957649343814
0004f0 9a 5b a4 81 bc 83 f4 bf ac 47 84 93 76 90 f4 bf
       -1.282162195600654 -1.2852693331119367
000500 db 6d 0e 92 d7 94 f4 bf 01 3d dd 0a 3f d6 f3 bf
       -1.2863383965803823 -1.2398062157042775
000510 dd 29 ec 39 53 9c f3 bf 14 29 06 d6 88 cc f3 bf
       -1.2256653082464404 -1.2374351845088016
000520 3a 16 c8 65 a5 2a f4 bf b6 9c 16 9a e3 34 f4 bf
       -1.2604116416781737 -1.2629123705935803
000530 bf 73 15 1b fc bc f4 bf 4d 50 b3 54 3c c7 f4 bf
       -1.296138864322742 -1.2986415203677268
000540 3b 81 56 e0 8e dd 0d c0 1a 55 61 b7 32 4e 0d c0
       -3.7331826712035343 -3.6631826712206363
000550 39 1e 3e 4a 83 dd 0d c0 61 82 9c f1 be 6c 0e c0
       -3.733160572071736 -3.803098571385178
000560 c1 fc 4b e5 06 e7 0e c0 4d 5f 47 8c 7b 74 0f c0
       -3.8628061212362756 -3.931876274040326
000570 68 b5 54 9d 6a 7b 0f c0 57 2d 46 d6 2c 91 0f c0
       -3.935261944911577 -3.945886301056514
000580 36 7d 0a 7e 69 9e 0f c0 54 d5 be cb 75 f1 0f c0
       -3.9523496481848737 -3.9929004590618806
000590 f7 58 c2 d4 10 05 10 c0 c2 62 78 7c 3e 0e 10 c0
       -4.004947018014938 -4.013910240981831
0005a0 ce c7 a0 3d 27 3a 10 c0 b5 5d af 49 34 46 10 c0
       -4.056790316522848 -4.068558837250227
0005b0 f9 f1 ce d6 65 8a 10 c0 8e 69 91 81 b5 a7 10 c0
       -4.13515411031812 -4.163778328418983
0005c0 28 39 57 24 3b b5 10 c0 f4 d6 aa 0d e0 b8 10 c0
       -4.176983421157537 -4.180542195846773
0005d0 eb e5 c0 84 d7 de 10 c0 6c 94 7a 6c f4 db 10 c0
       -4.217619013093535 -4.214799590093303
0005e0 d6 b1 b3 b8 e5 dc 10 c0 2f c0 92 ea 95 ea 0d c0
       -4.215720067947094 -3.7395437551531567
0005f0 3f 67 86 13 f2 79 0e c0 9e 63 25 7d 46 09 0f c0
       -3.809543755091823 -3.8795289780650384
000600 ea 60 eb 48 35 ca 0e c0 77 1f 36 4c a6 83 0e c0
       -3.84873444526976 -3.8142820314423562
000610 ca 0e 82 e3 14 3c 0e c0 f6 d8 ca 56 5e 49 0e c0
       -3.779336717039631 -3.785824468675055
000620 05 eb 17 8c f8 20 0e c0 e3 58 bd 63 dd fa 0d c0
       -3.766099066238328 -3.74749257966606
000630 1b 34 da ef 94 a5 0d c0 53 f2 e4 cf 82 91 0d c0
       -3.7058504808869777 -3.6960502855056716
000640 8b 77 38 f4 6a 74 0d c0 df 05 87 4f 6f 14 0d c0
       -3.6818446235401487 -3.634977933223794
000650 c6 77 64 0b 5c e7 0c c0 53 b6 2c ec b7 66 0d c0
       -3.612968529704605 -3.675155491938122
000660 81 99 47 3d 7b 89 0d c0 4c 6c ae 49 75 5d 0d c0
       -3.6921295917010757 -3.670633865008801
000670 d4 43 36 bf 6a 39 0d c0 80 09 71 78 a4 df 0c c0
       -3.65303563484529 -3.6092004212852657
000680 f1 41 a3 d9 43 f9 0c c0 b9 21 bc d4 45 f4 0c c0
       -3.621711445135809 -3.6192738170541046
000690 08 1a bb ce 07 80 f3 bf ea 94 cf 7c 4f 61 f2 bf
       -1.2187574458527042 -1.1487574458527043
0006a0 87 69 de 37 78 8c f1 bf f8 05 a7 6e 2f 8c f1 bf
       -1.0967943365454589 -1.096724922405313
0006b0 f8 05 a7 6e 2f 8c f1 bf 31 88 99 44 e1 e1 f1 bf
       -1.096724922405313 -1.1176464729001163
0006c0 02 58 4b a5 2f 67 f1 bf 02 58 4b a5 2f 67 f1 bf
       -1.0876919228371666 -1.0876919228371666
0006d0 76 28 81 02 c6 10 f1 bf 7b bd 4c 04 a5 2b f1 bf
       -1.066595086844726 -1.0731554191550845
0006e0 7b bd 4c 04 a5 2b f1 bf 7b bd 4c 04 a5 2b f1 bf
       -1.0731554191550845 -1.0731554191550845
0006f0 be 45 cd ff 09 1c f1 bf be 45 cd ff 09 1c f1 bf
       -1.0693454735049808 -1.0693454735049808
000700 be 45 cd ff 09 1c f1 bf 83 9f fd 3f 65 71 f1 bf
       -1.0693454735049808 -1.0901844501149476
000710 83 9f fd 3f 65 71 f1 bf 34 ca 74 19 3f 04 f1 bf
       -1.0901844501149476 -1.0635367388137071
000720 34 ca 74 19 3f 04 f1 bf 3f a0 96 9d 39 bb f0 bf
       -1.0635367388137071 -1.0457092433735082
000730 3f a0 96 9d 39 bb f0 bf 2d 02 a0 53 b8 a9 f3 bf
       -1.0457092433735082 -1.2289355532267436
000740 55 86 b4 01 00 8b f2 bf 7b 4d 8a 1c f8 a7 f3 bf
       -1.158935553227271 -1.2285081019261657
000750 16 62 cb ca 4c a6 f3 bf 16 62 cb ca 4c a6 f3 bf
       -1.2281005784663015 -1.2281005784663015
000760 fa fe 77 ad 65 2a f3 bf cd 59 0f ac 22 23 f3 bf
       -1.1978508735773503 -1.1960779877750725
000770 cd 59 0f ac 22 23 f3 bf b5 46 56 f3 77 c9 f3 bf
       -1.1960779877750725 -1.2366866593696788
000780 60 5e cc a9 68 95 f3 bf 60 5e cc a9 68 95 f3 bf
       -1.223976767801922 -1.223976767801922
000790 60 5e cc a9 68 95 f3 bf ea e6 40 52 33 c3 f3 bf
       -1.223976767801922 -1.2351563656833897
0007a0 ea e6 40 52 33 c3 f3 bf ea e6 40 52 33 c3 f3 bf
       -1.2351563656833897 -1.2351563656833897
0007b0 0c 2d fe bd 69 06 f3 bf 0c 2d fe bd 69 06 f3 bf
       -1.1890656873318362 -1.1890656873318362
0007c0 63 ff 30 05 e9 a0 f3 bf 63 ff 30 05 e9 a0 f3 bf
       -1.2267847254551831 -1.2267847254551831
0007d0 9f 6f 3c 92 e7 14 f4 bf 9f 6f 3c 92 e7 14 f4 bf
       -1.2551036560389333 -1.2551036560389333
0007e0 4f eb a7 7c ed 6a 0d c0 ca 28 b2 53 91 db 0c c0
       -3.6772107828850618 -3.6072107828850664
0007f0 f0 ea 4e 90 7b 50 0d c0 69 0a 9d a8 92 df 0d c0
       -3.66429817906225 -3.734166447918416
